MyModels/Deeplearning_Model.pth (torch, 37295 bytes, 6 tensors)

net.0.weight f4 [64, 102]
000000 1d d7 85 3c ec 76 4b 3d 08 1d 8b bd 2c ca 51 3d
       0.016337926 0.04967396 -0.06792647 0.051218197
000010 97 fb 30 3d 78 5f 91 bd 92 cc 86 bc 52 d9 89 3d
       0.043208685 -0.07098287 -0.016454969 0.06730904
000020 7f 35 e5 3a 8d 05 60 3d 65 6f 84 3c e8 52 c6 bc
       0.0017487257 0.054692794 0.016166398 -0.024209455
000030 0f 29 0a ba 4c ab 15 bb a3 c5 9a 3d 17 ae 12 bd
       -0.00052704004 -0.0022837697 0.075572275 -0.035810556
000040 32 8a 8e 3d a4 d4 a6 3c b1 be 05 bd 46 e6 57 bd
       0.069599524 0.020365067 -0.03265256 -0.05270984
000050 b7 72 44 3c 45 42 ad 3d bd 43 28 3d 6d 3b a2 bd
       0.011990241 0.084599055 0.041080225 -0.07921491
000060 64 20 8a bd e1 19 33 bd 01 58 38 3d a9 91 74 bd
       -0.06744459 -0.043725852 0.045005802 -0.059709225
000070 44 9f 92 bb 99 2d c8 3d e0 52 af 3c 2e 1b 52 bd
       -0.0044745523 0.09774322 0.021401823 -0.05129545
000080 b8 15 fd bc 42 44 58 bc 3d 22 bc 3d 3d a6 64 bd
       -0.030894145 -0.013199868 0.09186218 -0.0558226
000090 14 f9 bd 3c d3 19 70 bd 02 04 af bc 7c 00 40 3d
       0.023190059 -0.058618378 -0.021364216 0.046875462
0000a0 e8 fe 83 3d 8d 70 24 3d c2 5f 1c bd 14 cc ca 3c
       0.06445104 0.0401464 -0.03817726 0.024755515
0000b0 3a 19 ea bc 86 7a 8c 3d 6b 4f db bb 99 20 b0 3d
       -0.028576482 0.06859307 -0.006692817 0.085999675
0000c0 f5 24 ac 3d 9b 16 3e 3d dc 0e 69 3b 8c 71 08 bc
       0.084054865 0.046408277 0.0035561835 -0.008327853
0000d0 25 91 fb bc a1 66 2a 3c bd f1 a6 bd f7 6e 80 bd
       -0.030708859 0.010400445 -0.08151577 -0.06271165
0000e0 ad dc b9 bd ab 7e 60 bd 3f 54 9b bc 42 ab 62 bc
       -0.09075294 -0.0548083 -0.01896107 -0.013834776
0000f0 d0 64 b2 bc 1c f0 a2 3d 23 9b 91 bd da d1 90 3d
       -0.021776587 0.079559535 -0.07109668 0.07071276
000100 c6 37 d5 bb c5 e5 a0 3d c1 d7 59 3d 9a 28 a4 3c
       -0.006506893 0.07856325 0.053184275 0.020038892
000110 05 d9 fa 3c 81 84 2d 3d 4b 28 cf 3d 0d 97 0e 3c
       0.030621061 0.042362694 0.10115107 0.0087030055
000120 7b 74 80 bd f7 9e 3e ba c7 b0 72 bd 9a ea 83 3d
       -0.06272217 -0.00072716124 -0.05925062 0.06441231
000130 aa ac 69 bd a7 a9 87 3d 27 cf 55 bc a3 43 bd 3c
       -0.05704943 0.066241555 -0.013049877 0.02310354
000140 f3 f2 c9 3d 17 04 02 bd af 52 d5 3c a9 53 9b 3d
       0.09860792 -0.03174218 0.026040403 0.07584316
000150 6e f6 8a 3d 64 63 8e bd 49 13 91 bc 7d 11 b5 3d
       0.06785284 -0.06952551 -0.017709391 0.08841226
000160 13 e1 7f 3d 8d 04 b5 bc f2 32 e0 bc 09 23 9a bd
       0.062470507 -0.022096897 -0.027368043 -0.07526214
000170 47 b4 a3 bd 84 cc ac bd 3a e7 c4 3d d0 b9 91 bd
       -0.079933695 -0.08437446 0.096144155 -0.07115519
000180 8d 60 f4 bc 10 4c d7 ba 6b 35 29 bd 1e 4b 4c 3d
       -0.029831195 -0.0016425867 -0.04131071 0.049876325
000190 da 2b d3 bc b3 f3 05 bd 1f 6d 1a bc 6e 1b ae bc
       -0.025777746 -0.032703113 -0.009425431 -0.021253314
0001a0 f1 43 c4 3c e8 0d 3c bd cb 64 a2 3d 1f bd 14 3d
       0.023958178 -0.0459117 0.07929381 0.036313172
0001b0 8f 0f c8 bc e2 25 39 3d a1 c0 a5 3d 64 3d 3a bd
       -0.024421481 0.045202143 0.08093382 -0.045468703
0001c0 09 17 c6 3d e9 23 79 3b 1a 26 1e 3d 76 7d 96 bd
       0.09672362 0.003801579 0.038610555 -0.073481485
0001d0 f0 2f 2b bd 21 1f b8 3d d7 9c 11 3d 0d 61 c2 3d
       -0.041793764 0.08990312 0.035549965 0.09491167
0001e0 d1 f9 2a bc f6 f0 70 bd d2 c9 aa 3d 7f 8b 83 bd
       -0.010435537 -0.05882355 0.083392754 -0.06423091
0001f0 ac e5 94 bd 99 e1 bb bc dc 46 0b bd 0d 08 16 3d
       -0.07270369 -0.022934722 -0.034003124 0.03662877
000200 38 5a b4 bd fd 2e 4f bd 5f aa b3 3d f9 b1 b3 3d
       -0.0880627 -0.05058192 0.0877273 0.0877418
000210 6f f6 14 3d e0 39 95 3d 62 71 a8 bd b5 b3 34 bd
       0.03636783 0.072864294 -0.08224751 -0.044116694
000220 60 40 4c bc d2 15 04 bd 1c 19 92 bd 92 d0 62 3d
       -0.01246652 -0.032247372 -0.071336955 0.05537469
000230 2d 80 1c bd 15 4e 27 3d e0 9c 17 bd 48 6b c5 bc
       -0.038208175 0.04084595 -0.037014842 -0.024099007
000240 01 a4 80 bd 1a 23 c5 bd 12 69 9a 3d ff 7b 8a 3d
       -0.06281281 -0.09625836 0.07539572 0.06761932
000250 7a 7a 63 bd 93 f4 ab bb e8 80 bd bd 01 b5 cd bc
       -0.055536725 -0.0052476614 -0.092531025 -0.025110723
000260 1c 83 3c bb 7b 3c 0a 3c cd 6c 86 bd 77 94 ca 3d
       -0.002876467 0.008437271 -0.06563721 0.09891599
000270 0e ff 60 bd 9a 7f 66 bd 3b 94 80 bd 5f 77 17 3d
       -0.05493074 -0.056274034 -0.06278273 0.036979076
000280 27 06 37 bd ee f2 92 3c 3e 05 8f bd fd 1f 4f 3d
       -0.0446836 0.017938104 -0.06983422 0.050567616
000290 2a 73 c3 bd f2 64 c0 3d 63 02 ad 3d 08 cb 9e 3d
       -0.0954345 0.09394254 0.08447721 0.07753569
0002a0 72 d8 a9 bd 42 8d b4 bd 5e bf 3d 3b 74 67 05 bd
       -0.08293237 -0.08816005 0.0028953175 -0.032569364
0002b0 fe 0a 9a bd d7 e0 a6 bd c0 f9 d2 bc 59 cf 03 3d
       -0.07521628 -0.081483535 -0.025753856 0.032180164
0002c0 ff 9d 55 3c 14 c0 90 bd f3 12 3e bd 37 fa 3a bd
       0.0130381575 -0.07067886 -0.04640479 -0.04564878
0002d0 ea 9b 15 bd 7b 80 0f bd 42 2b 27 bc e6 4b 0c bd
       -0.036525644 -0.035034638 -0.010203185 -0.03425207
0002e0 10 6e 9f bc e5 1c 3c 3b 50 14 ae 3d e5 9a d3 bc
       -0.019461662 0.0028703746 0.08499968 -0.025830695
0002f0 6c c4 bc bd 78 96 5b 3c 7e 1c 90 3d 35 e9 9d bd
       -0.09217152 0.013402574 0.070366845 -0.07710496
000300 7a d0 41 bc a0 bf 69 3d a4 cb 15 bc 1b 08 88 3c
       -0.01182949 0.057067513 -0.00914279 0.016605427
000310 ad e7 90 bd ac bf eb 3b 94 c3 d9 39 78 1b 24 bd
       -0.07075439 0.00719448 0.00041535182 -0.04006526
000320 7f 1b 25 bd f1 14 9e bd 1d b1 f4 bc ee e6 c8 3d
       -0.040309425 -0.07718838 -0.02986961 0.09809671
000330 9d 53 ef bd d7 b3 0b bd af c1 ac bd ce 7a 3c bd
       -0.1168587 -0.034107056 -0.0843538 -0.046015553
000340 96 ac 16 bd 3b 28 a0 bd 3f 2f 39 bd a8 cb 01 bd
       -0.036785685 -0.07820173 -0.045211073 -0.031688362
000350 89 11 86 3d cc 66 56 bd 97 e7 5b bb 74 25 3c bd
       0.06546313 -0.05234413 -0.0033554786 -0.045934156
000360 c1 69 25 bd 90 98 b1 bc e0 cf db bb eb 4a be bd
       -0.040384058 -0.021679193 -0.0067081302 -0.09291633
000370 51 4b e5 3d 90 4a da 3d 19 df 11 3d 03 a7 97 3c
       0.11196006 0.10658753 0.035613153 0.018512255
000380 22 5d 11 3d 8c 34 e4 bd ac 37 06 3e 98 32 8c bd
       0.03548921 -0.11142835 0.13107175 -0.068455875
000390 c3 1f aa 3d 59 51 c4 3b b0 b4 6f 3d 37 25 44 3d
       0.08306839 0.0059911427 0.058521926 0.047887053
0003a0 b1 76 9f bd 2a c7 de bd 5e 4d 12 3d bb f9 bc 3d
       -0.077863105 -0.10877831 0.035718314 0.0922732
0003b0 e0 1d 5b 3b 76 08 21 bd b1 fd 81 bc 9a ee 8f bc
       0.0033434555 -0.03931471 -0.01586804 -0.017569829
0003c0 9b 92 0b bd 89 96 9e 3d 9a 5d ea 3d 61 ed 67 3d
       -0.03407536 0.07743556 0.11443634 0.056622867
0003d0 ae 21 cd 3b 52 3f 73 3d 4b df 9a bd 20 95 b9 3d
       0.0062601184 0.05938656 -0.07562121 0.090616465
0003e0 fe 56 98 3d 5b ac e8 bd fb c7 a1 3d 1c d4 d7 3d
       0.074384674 -0.11360999 0.07899471 0.105385035
0003f0 3d ec 93 3c 3d 0a ea 3d 36 2f 30 bd 3d ae b4 bc
       0.018056983 0.11427734 -0.043013774 -0.02205574

net.0.bias f4 [64]
000000 da 27 ea bb 78 e9 ed ba 3f 04 95 3c 9f 65 8d bd
       -0.007145864 -0.0018151244 0.018190501 -0.06904148
000010 21 4e af 3d ff 7c c8 3d 97 bc 36 bd fd 6e 0e bd
       0.08559824 0.09789466 -0.044613447 -0.034773815
000020 4e 72 00 bd 1d e5 e0 bc 93 00 79 3d 00 94 d6 bc
       -0.03135901 -0.027453 0.060791563 -0.026193619
000030 c3 d0 9e 3d 35 22 a8 3c 7d bf 0d 3d a7 a2 f7 bc
       0.07754662 0.020524124 0.034606446 -0.030228926
000040 fa a9 61 3c e3 61 43 3e de d3 7d 3d f2 e9 a2 bd
       0.013773436 0.1908031 0.06196963 -0.07954778
000050 db 9f 28 3d 38 e7 f1 bb 92 4d ba 3d 03 60 67 bd
       0.041168075 -0.0073822998 0.090968266 -0.05648805
000060 1c 07 24 bd bb 33 0d 3e 94 46 41 3c ad ce 29 3c
       -0.040045843 0.13789265 0.011796612 0.010364217
000070 dc e7 55 bc 79 ea 54 3d 5a 40 1b 3d 25 30 8c 3d
       -0.013055768 0.051981423 0.037903167 0.0684512
000080 93 96 80 3d 90 c7 53 bd 46 d0 00 3d 63 65 fa bc
       0.0627872 -0.05170399 0.031448625 -0.030565923
000090 8d ab b7 bc 8e 88 ea 3d 8f 3d 80 3d ba 15 cf 3d
       -0.022420669 0.11451827 0.06261741 0.10111566
0000a0 b7 0f 14 bd 88 d5 d0 3c 8b 55 ac bc 78 e2 4d 3d
       -0.0361478 0.025492445 -0.021036884 0.050264806
0000b0 df 78 e1 bc d7 6b 8d bd 2a 58 4e bd c4 29 64 3e
       -0.027523456 -0.069053344 -0.05037705 0.22281557
0000c0 96 17 7b 3b 4d 6b 4a 3c d1 78 a3 bd 9d 89 8d bd
       0.003831362 0.012354684 -0.07982028 -0.06911013
0000d0 3f ed 7f 3d 01 71 53 ba 4f af 8b bd dc 6f 03 3e
       0.062482115 -0.000806585 -0.06820547 0.1283564
0000e0 bd 10 20 bd e9 fb 85 bc a0 f8 ef 3d 63 2c 11 3e
       -0.039078463 -0.016355472 0.11717343 0.14177088
0000f0 f5 94 95 bd 00 a6 d3 3c 45 c2 31 3d c8 19 77 bb
       -0.07303802 0.02583599 0.04339816 -0.0037704576

net.2.weight f4 [32, 64]
000000 be db 49 3d f3 24 2e b8 a5 c9 11 3c 0b d2 00 3e
       0.049281828 -4.1519244e-05 0.008898173 0.12580125
000010 bb ad a6 bc 32 63 25 3d 77 c4 02 3e b9 a8 b9 bd
       -0.020346513 0.040377803 0.12770258 -0.090653844
000020 a8 e9 bb 3d fa 8c 8e 3d fc d9 2b 3d 62 10 20 bd
       0.09175426 0.06960483 0.041955933 -0.039078124
000030 64 57 c4 3d 49 a1 6f bd 18 35 b2 bb 57 08 5d 3b
       0.09586981 -0.058503423 -0.005438458 0.0033726895
000040 86 12 3f 3d 8d be 4a bd 8f 45 9e 3d 53 13 22 bd
       0.046648525 -0.04949813 0.07728111 -0.03956921
000050 e1 04 d9 bd ab 02 8f 3d 56 78 ed 3d 39 f5 0d 3e
       -0.10596634 0.06982931 0.11595218 0.13863076
000060 f9 04 d4 bd b6 46 ec bc c1 76 de bd 77 ad 41 3c
       -0.10352511 -0.028842311 -0.10862494 0.011821142
000070 2d ba 05 bd 79 5a cc 3d 8f 22 ab 3c f8 5e 18 3d
       -0.032648254 0.09978194 0.020890502 0.037199944
000080 38 2b f8 3d d7 db c5 3d fe be a7 bd 8e c6 9e 3d
       0.12117618 0.09661072 -0.08190726 0.07752715
000090 b6 00 a7 3d f1 cc ee 3d 35 e0 96 bd 64 d4 2d 3d
       0.081544325 0.11660183 -0.07366983 0.04243888
0000a0 97 38 b6 bd b6 4c 43 3d 2d 1f 15 bd a3 43 ac bd
       -0.088975124 0.04768058 -0.036406685 -0.08411338
0000b0 04 b8 b4 bd ca 33 8f bd 39 3a 8f 3d ce 71 c5 3d
       -0.08824161 -0.069923 0.06993527 0.09640847
0000c0 18 81 10 3e 3d e5 f0 3c 3c 92 52 bc d9 3a e0 bb
       0.14111745 0.029406184 -0.012852248 -0.0068429527
0000d0 6b 85 1e 3d c9 a8 eb 3d f3 6e 8e 3d 0a f0 19 3c
       0.038701456 0.115068026 0.06954756 0.009395609
0000e0 42 a3 b5 bd b4 54 96 bd 89 a8 01 be 9e 4e 33 bc
       -0.088690296 -0.073403746 -0.12661947 -0.010944037
0000f0 88 05 83 3c 04 fb 3e bd 7c 1f 97 bd f3 39 a1 3d
       0.015993848 -0.046626106 -0.07379052 0.07872381
000100 9a e7 c3 3d 5c 0d bb bd 2c e0 f0 bc 8a 64 9a 3d
       0.09565659 -0.091334075 -0.029403768 0.075387076
000110 bf 6e a7 bd 64 2b 51 3c 4a f2 92 3d 4e 16 d3 3d
       -0.0817542 0.012766693 0.07175119 0.10306989
000120 64 a9 0d 3d 8b 8f ab bd 7d e1 89 bc 89 40 d3 bd
       0.03458537 -0.08376988 -0.016831154 -0.103150435
000130 27 9b 38 3d 51 12 e6 3d 55 f4 39 3d 1c 4d d9 bd
       0.04506984 0.11233962 0.04539903 -0.106104106
000140 c4 a9 6a 3b 52 97 73 3b b5 bb 99 3a d0 1f aa 3b
       0.0035806755 0.0037169051 0.0011728915 0.0051917806
000150 69 c5 84 3d 4d 3a 86 3c 1f df 83 bd d0 4f 7d bd
       0.064829655 0.016385222 -0.06439041 -0.061843693
000160 d7 c1 d2 bd b1 a6 42 bd b3 0d 31 3d 6b d8 c4 3c
       -0.10290878 -0.04752225 0.043225955 0.024028977
000170 47 44 ed 3c cf c7 c2 3d 0e 68 00 be a9 e3 8b bc
       0.028963221 0.09510767 -0.12539694 -0.01707633
000180 b4 a2 45 3d a9 ec 41 bd 30 93 e8 3d 74 b7 cc 3d
       0.04825087 -0.047344837 0.11356199 0.099959284
000190 5a 68 28 bd 41 83 39 3d 08 a8 a5 bc e5 f4 04 3d
       -0.041115142 0.04529119 -0.020221725 0.032460112
0001a0 25 9b d7 bd cc f1 c5 3d f9 8b 56 3d 42 81 6f ba
       -0.10527638 0.0966526 0.052379582 -0.00091363874
0001b0 29 4b 80 bd fd 3d 9e bd c4 a2 c0 3d 45 76 56 bd
       -0.06264336 -0.07726667 0.09406045 -0.052358884
0001c0 62 5a 12 bd f2 89 a1 bc 0a 06 b1 bb 2f 27 38 3d
       -0.035730727 -0.019719098 -0.0054023312 0.044959243
0001d0 79 61 24 bc b9 f2 8a 3d 0c b3 c9 3c bd 3c e3 bd
       -0.010033005 0.06784577 0.024621509 -0.11095569
0001e0 47 4d e2 bb bc 38 c5 3d eb 7f e6 bc 18 39 9a 3d
       -0.006906185 0.09629962 -0.028137168 0.07530421
0001f0 6f f9 5d bc 97 74 71 3c 5b 5b 86 3d 1b 59 60 bd
       -0.013548239 0.01473727 0.065603934 -0.054772478
000200 56 8f ac 3d 26 3f e9 3d 43 5c a7 3d 23 6e 84 3d
       0.08425777 0.11388998 0.081718944 0.064663194
000210 ac 5f a2 3d c6 80 c1 3b e3 19 52 bd 4e 44 98 3d
       0.07928404 0.0059052436 -0.05129422 0.07434903
000220 b3 ba 82 3d 50 dd c0 bd d9 55 4d bd 8a 14 eb 3d
       0.06383266 -0.09417212 -0.0501307 0.11478527
000230 db be 7d bd 6d 4f 46 3c cd 44 a2 bd 2a 13 6f bc
       -0.061949592 0.0121038975 -0.07923279 -0.014591971
000240 06 58 b9 bc 2a 08 c9 3d 2c 71 b0 bd b7 06 6f 3d
       -0.02262498 0.0981601 -0.08615336 0.058356013
000250 17 c5 69 bd 76 a2 d0 bd 08 26 b1 3d c0 e3 ba bc
       -0.057072725 -0.10187237 0.08649832 -0.022813678
000260 4a 7c f5 3d 11 9a 4f bd 3a 05 d5 bd 5c a5 bc bd
       0.11986597 -0.05068404 -0.104013875 -0.09211227
000270 04 52 7f 3d bf de 7d 3d 8d b4 42 bc af c2 a5 3c
       0.062334076 0.061980005 -0.011883867 0.020234434
000280 4d fb 89 bd ba bf b6 3d dc 01 af 3d e1 25 de 3d
       -0.06737385 0.08923288 0.085452765 0.108470686
000290 c2 04 3a bd 89 c5 4b bb 5e 04 d0 3d d9 e9 d4 bb
       -0.045414694 -0.0031093082 0.10157083 -0.0064976034
0002a0 76 0d 57 3d 27 d5 14 3d 0f ec 54 bd fc 67 91 3d
       0.05250307 0.03633609 -0.051982936 0.070999116
0002b0 41 f8 68 bd 48 e2 ad bd be e9 79 3c be 44 8f 3d
       -0.05687738 -0.08490425 0.015253482 0.069955334
0002c0 4f a6 73 3d e5 4c ae bc 86 64 fa bd a1 9f d3 bd
       0.059484776 -0.0212769 -0.122262046 -0.10333181
0002d0 20 a1 ca 3d bb 96 f7 3d c9 37 e0 bd 03 99 df 3c
       0.098940134 0.120892964 -0.1094814 0.027294641
0002e0 cd 6b 86 bd 68 46 92 3a e4 0d 0f 3a ef 50 ab 3d
       -0.0656353 0.0011159899 0.0005457087 0.08365046
0002f0 8b d2 c3 3d 1a ef 3d 3d f7 62 e5 3d 8a fc ee 3d
       0.09561642 0.046370603 0.11200517 0.11669262
000300 0e 03 48 bd 29 fa 77 bd fd ad 03 3e 55 d1 9c 3d
       -0.04883104 -0.060541306 0.1285934 0.076571144
000310 dd 95 e4 bd b8 81 b6 bd ce a5 ab bd 57 69 0b 3d
       -0.11161397 -0.08911461 -0.08381234 0.034036007
000320 62 37 07 3d b9 1f ad 3d 42 95 2d 3d ad fe 2d bd
       0.0330118 0.08453316 0.04237867 -0.042479206
000330 ad f7 c5 bd 2c 4f e7 3d 64 02 fd 3d 1d 4d b5 3d
       -0.09666381 0.11294398 0.123539716 0.08852599
000340 97 d9 a9 bc 35 4e bd 3d ad 5f 00 bd 23 43 a8 3d
       -0.020733638 0.092434324 -0.031341244 0.0821593
000350 0c 53 61 bd c0 b0 c2 bd df fa 2c 3b 6b ee b9 3d
       -0.05501084 -0.09506369 0.0026394648 0.09078678
000360 fd 5d 52 bd 2a 00 8c bd 4d 04 9e bd 35 98 fe bc
       -0.051359165 -0.06835969 -0.07715664 -0.031078437
000370 ce 72 cd bd fc d4 86 bd bd c3 d5 3d 49 c9 dc bc
       -0.10031663 -0.06583592 0.10437725 -0.026951449
000380 d3 a4 e2 3d bc 43 a9 bd f2 dd e2 bb f7 3e 72 bb
       0.11066594 -0.082648724 -0.0069234306 -0.00369638
000390 a1 d6 e7 bb 71 64 81 3d 9e a6 d4 bd 12 ec 01 bd
       -0.0070751463 0.06317986 -0.10383342 -0.031719275
0003a0 77 1c d5 bd 52 59 38 3d 52 32 2b 3d e7 81 9e bc
       -0.1040582 0.045007057 0.041796036 -0.019349052
0003b0 41 5b f0 bd 5e cb a6 bd 41 7a cc 3c 5f 09 59 3d
       -0.11736155 -0.08144258 0.024960639 0.052987453
0003c0 3b 46 9e 3c 50 68 82 3d dc ba bb bd 2d b0 bd 3d
       0.019320598 0.06367552 -0.091665 0.092621185
0003d0 94 56 b9 3d d0 dc 18 3d ed fa 6b bd 2f 13 1a bd
       0.090497166 0.03731996 -0.05761235 -0.03761595
0003e0 93 31 49 3d 98 01 8e bd 0a da ca bd 35 e9 a5 3d
       0.049119543 -0.06933898 -0.09904869 0.08101121
0003f0 12 7d 21 bd 25 02 a4 3d cb 14 4e bd 25 d8 99 bd
       -0.039425917 0.080082215 -0.0503128 -0.075119294

net.2.bias f4 [32]
000000 31 51 db 3d 8b fa ba bd fb 7d b5 3c 92 21 6b 3c
       0.107088454 -0.091298185 0.022154799 0.0143512655
000010 2e 52 32 3e 12 f9 93 3c 9f 43 01 3d 7c 1d 26 3e
       0.17414162 0.018063102 0.03155863 0.16222185
000020 b2 ec 9f 3e 41 c6 99 bc 4e ce 23 3e 22 9a 8a bc
       0.31235272 -0.018771293 0.15996668 -0.0169192
000030 f4 26 9f 3d 05 22 d3 3c 6d a5 a0 3d 5a 8c 00 be
       0.077711016 0.025773058 0.078440525 -0.1255354
000040 67 45 dd 3d 89 db 99 3e 02 1a ee bc b1 8e 68 3b
       0.10804253 0.30050305 -0.029065136 0.0035485441
000050 c7 8c 17 3e be e2 dc bc c1 b3 83 bd 4e 62 f6 bc
       0.14799796 -0.026963588 -0.0643077 -0.030076172
000060 43 7c 88 3e 99 61 cf 3c 3f e6 f7 bd 49 35 24 3e
       0.26657304 0.025315093 -0.12104463 0.16035952
000070 47 26 1f 3d 72 b3 c9 3c 51 f9 b2 3d be 1d 27 bd
       0.038854863 0.024621699 0.087389596 -0.04079985

net.4.weight f4 [2, 32]
000000 d1 14 4a bd 99 ce f5 bd a4 96 71 3e 84 12 08 3e
       -0.04933626 -0.12002296 0.23592621 0.13288313
000010 3a c2 68 3e c2 f6 40 3e 4c 96 70 bd fb d5 87 3e
       0.22730342 0.1884413 -0.058737084 0.26530442
000020 d9 c8 df 3e 8e 16 2b 3e fe 22 9c 3e bb 47 88 3e
       0.43707922 0.16707823 0.30495447 0.26617226
000030 f2 ba 43 be 8b eb 0e 3e 3a 28 eb be 8c 0a fd bd
       -0.19114283 0.1395704 -0.45929128 -0.12355527
000040 61 df 15 be 45 d5 d0 3e 18 38 52 3e 0b 44 57 3d
       -0.14635994 0.40787712 0.2052921 0.052555125
000050 11 b3 72 3e 31 34 41 3e a7 ad 51 3e dc 29 02 3e
       0.23701121 0.18867566 0.204764 0.1271128
000060 f0 ed 65 3e 12 55 97 3d 46 0f 1a be 26 e1 bb 3e
       0.22454047 0.07389273 -0.15044889 0.36695212
000070 ea f2 82 bb 15 26 f5 3c 98 fd 21 3e b6 76 06 be
       -0.003996243 0.029925385 0.15819395 -0.13131222
000080 86 df 1a 3e f7 b0 d5 bd d4 bc 95 3b be 5b 90 bd
       0.1512433 -0.10434144 0.004569629 -0.070487484
000090 bc f2 7b be cd ce 11 be 1e 29 1b be e1 5d 0e be
       -0.24604315 -0.14239044 -0.15152404 -0.13903
0000a0 2c 60 c7 be 20 50 ee 3d ac 07 ba bd e8 33 51 be
       -0.3894056 0.116363764 -0.090834945 -0.20429957
0000b0 d5 c3 4d 3e 5a ad 7b be 54 c5 db 3e c9 8c 04 3e
       0.20094235 -0.24577847 0.42923987 0.1294433
0000c0 a8 4e 8e 3e a8 c7 c0 be 2b 05 36 3d f0 e8 38 be
       0.27794385 -0.37652326 0.044438522 -0.18057609
0000d0 8a 34 bc bd a9 f4 0b 3d 09 a0 80 bd 5d 3c 5b be
       -0.091897085 0.034168873 -0.06280524 -0.21409746
0000e0 ac af 03 bf f9 ea 6f bc 5b 25 2a be d6 74 c3 be
       -0.5143993 -0.014643424 -0.16615812 -0.38175076
0000f0 61 2c 3b 3c 8b 18 2e 3e 8c 76 4c be 77 97 69 3d
       0.011424155 0.1700155 -0.19967097 0.057029214

net.4.bias f4 [2]
000000 1d 2e 99 3e 08 be c7 3c
       0.29917994 0.024382606
